(L__self___module_model_bert_embeddings_word_embeddings): Embedding(28996, 768, padding_idx=0)
(L__self___module_model_bert_embeddings_token_type_embeddings): Embedding(2, 768)
(L__self___module_model_bert_embeddings_position_embeddings): Embedding(512, 768)
(L__self___module_model_bert_embeddings_LayerNorm): LayerNorm((768,), eps=1e-12, elementwise_affine=True)
(L__self___module_model_bert_embeddings_dropout): Dropout(p=0.1, inplace=False)
(L__self___module_model_bert_encoder_layer_0_attention_self_query): Linear(in_features=768, out_features=768, bias=True)
(L__self___module_model_bert_encoder_layer_0_attention_self_key): Linear(in_features=768, out_features=768, bias=True)
(L__self___module_model_bert_encoder_layer_0_attention_self_value): Linear(in_features=768, out_features=768, bias=True)
(L__self___module_model_bert_encoder_layer_0_attention_self_dropout): Dropout(p=0.1, inplace=False)
(L__self___module_model_bert_encoder_layer_0_attention_output_dense): Linear(in_features=768, out_features=768, bias=True)
(L__self___module_model_bert_encoder_layer_0_attention_output_dropout): Dropout(p=0.1, inplace=False)
(L__self___module_model_bert_encoder_layer_0_attention_output_LayerNorm): LayerNorm((768,), eps=1e-12, elementwise_affine=True)
(L__self___module_model_bert_encoder_layer_0_intermediate_dense): Linear(in_features=768, out_features=3072, bias=True)
(L__self___module_model_bert_encoder_layer_0_output_dense): Linear(in_features=3072, out_features=768, bias=True)
(L__self___module_model_bert_encoder_layer_0_output_dropout): Dropout(p=0.1, inplace=False)
(L__self___module_model_bert_encoder_layer_0_output_LayerNorm): LayerNorm((768,), eps=1e-12, elementwise_affine=True)
(L__self___module_model_bert_encoder_layer_1_attention_self_query): Linear(in_features=768, out_features=768, bias=True)
(L__self___module_model_bert_encoder_layer_1_attention_self_key): Linear(in_features=768, out_features=768, bias=True)
(L__self___module_model_bert_encoder_layer_1_attention_self_value): Linear(in_features=768, out_features=768, bias=True)
(L__self___module_model_bert_encoder_layer_1_attention_self_dropout): Dropout(p=0.1, inplace=False)
(L__self___module_model_bert_encoder_layer_1_attention_output_dense): Linear(in_features=768, out_features=768, bias=True)
(L__self___module_model_bert_encoder_layer_1_attention_output_dropout): Dropout(p=0.1, inplace=False)
(L__self___module_model_bert_encoder_layer_1_attention_output_LayerNorm): LayerNorm((768,), eps=1e-12, elementwise_affine=True)
(L__self___module_model_bert_encoder_layer_1_intermediate_dense): Linear(in_features=768, out_features=3072, bias=True)
(L__self___module_model_bert_encoder_layer_1_output_dense): Linear(in_features=3072, out_features=768, bias=True)
(L__self___module_model_bert_encoder_layer_1_output_dropout): Dropout(p=0.1, inplace=False)
(L__self___module_model_bert_encoder_layer_1_output_LayerNorm): LayerNorm((768,), eps=1e-12, elementwise_affine=True)
(L__self___module_model_bert_encoder_layer_2_attention_self_query): Linear(in_features=768, out_features=768, bias=True)
(L__self___module_model_bert_encoder_layer_2_attention_self_key): Linear(in_features=768, out_features=768, bias=True)
(L__self___module_model_bert_encoder_layer_2_attention_self_value): Linear(in_features=768, out_features=768, bias=True)
(L__self___module_model_bert_encoder_layer_2_attention_self_dropout): Dropout(p=0.1, inplace=False)
(L__self___module_model_bert_encoder_layer_2_attention_output_dense): Linear(in_features=768, out_features=768, bias=True)
(L__self___module_model_bert_encoder_layer_2_attention_output_dropout): Dropout(p=0.1, inplace=False)
(L__self___module_model_bert_encoder_layer_2_attention_output_LayerNorm): LayerNorm((768,), eps=1e-12, elementwise_affine=True)
(L__self___module_model_bert_encoder_layer_2_intermediate_dense): Linear(in_features=768, out_features=3072, bias=True)
(L__self___module_model_bert_encoder_layer_2_output_dense): Linear(in_features=3072, out_features=768, bias=True)
(L__self___module_model_bert_encoder_layer_2_output_dropout): Dropout(p=0.1, inplace=False)
(L__self___module_model_bert_encoder_layer_2_output_LayerNorm): LayerNorm((768,), eps=1e-12, elementwise_affine=True)
(L__self___module_model_bert_encoder_layer_3_attention_self_query): Linear(in_features=768, out_features=768, bias=True)
(L__self___module_model_bert_encoder_layer_3_attention_self_key): Linear(in_features=768, out_features=768, bias=True)
(L__self___module_model_bert_encoder_layer_3_attention_self_value): Linear(in_features=768, out_features=768, bias=True)
(L__self___module_model_bert_encoder_layer_3_attention_self_dropout): Dropout(p=0.1, inplace=False)
(L__self___module_model_bert_encoder_layer_3_attention_output_dense): Linear(in_features=768, out_features=768, bias=True)
(L__self___module_model_bert_encoder_layer_3_attention_output_dropout): Dropout(p=0.1, inplace=False)
(L__self___module_model_bert_encoder_layer_3_attention_output_LayerNorm): LayerNorm((768,), eps=1e-12, elementwise_affine=True)
(L__self___module_model_bert_encoder_layer_3_intermediate_dense): Linear(in_features=768, out_features=3072, bias=True)
(L__self___module_model_bert_encoder_layer_3_output_dense): Linear(in_features=3072, out_features=768, bias=True)
(L__self___module_model_bert_encoder_layer_3_output_dropout): Dropout(p=0.1, inplace=False)
(L__self___module_model_bert_encoder_layer_3_output_LayerNorm): LayerNorm((768,), eps=1e-12, elementwise_affine=True)
(L__self___module_model_bert_encoder_layer_4_attention_self_query): Linear(in_features=768, out_features=768, bias=True)
(L__self___module_model_bert_encoder_layer_4_attention_self_key): Linear(in_features=768, out_features=768, bias=True)
(L__self___module_model_bert_encoder_layer_4_attention_self_value): Linear(in_features=768, out_features=768, bias=True)
(L__self___module_model_bert_encoder_layer_4_attention_self_dropout): Dropout(p=0.1, inplace=False)
(L__self___module_model_bert_encoder_layer_4_attention_output_dense): Linear(in_features=768, out_features=768, bias=True)
(L__self___module_model_bert_encoder_layer_4_attention_output_dropout): Dropout(p=0.1, inplace=False)
(L__self___module_model_bert_encoder_layer_4_attention_output_LayerNorm): LayerNorm((768,), eps=1e-12, elementwise_affine=True)
(L__self___module_model_bert_encoder_layer_4_intermediate_dense): Linear(in_features=768, out_features=3072, bias=True)
(L__self___module_model_bert_encoder_layer_4_output_dense): Linear(in_features=3072, out_features=768, bias=True)
(L__self___module_model_bert_encoder_layer_4_output_dropout): Dropout(p=0.1, inplace=False)
(L__self___module_model_bert_encoder_layer_4_output_LayerNorm): LayerNorm((768,), eps=1e-12, elementwise_affine=True)
(L__self___module_model_bert_encoder_layer_5_attention_self_query): Linear(in_features=768, out_features=768, bias=True)
(L__self___module_model_bert_encoder_layer_5_attention_self_key): Linear(in_features=768, out_features=768, bias=True)
(L__self___module_model_bert_encoder_layer_5_attention_self_value): Linear(in_features=768, out_features=768, bias=True)
(L__self___module_model_bert_encoder_layer_5_attention_self_dropout): Dropout(p=0.1, inplace=False)
(L__self___module_model_bert_encoder_layer_5_attention_output_dense): Linear(in_features=768, out_features=768, bias=True)
(L__self___module_model_bert_encoder_layer_5_attention_output_dropout): Dropout(p=0.1, inplace=False)
(L__self___module_model_bert_encoder_layer_5_attention_output_LayerNorm): LayerNorm((768,), eps=1e-12, elementwise_affine=True)
(L__self___module_model_bert_encoder_layer_5_intermediate_dense): Linear(in_features=768, out_features=3072, bias=True)
(L__self___module_model_bert_encoder_layer_5_output_dense): Linear(in_features=3072, out_features=768, bias=True)
(L__self___module_model_bert_encoder_layer_5_output_dropout): Dropout(p=0.1, inplace=False)
(L__self___module_model_bert_encoder_layer_5_output_LayerNorm): LayerNorm((768,), eps=1e-12, elementwise_affine=True)
(L__self___module_model_bert_encoder_layer_6_attention_self_query): Linear(in_features=768, out_features=768, bias=True)
(L__self___module_model_bert_encoder_layer_6_attention_self_key): Linear(in_features=768, out_features=768, bias=True)
(L__self___module_model_bert_encoder_layer_6_attention_self_value): Linear(in_features=768, out_features=768, bias=True)
(L__self___module_model_bert_encoder_layer_6_attention_self_dropout): Dropout(p=0.1, inplace=False)
(L__self___module_model_bert_encoder_layer_6_attention_output_dense): Linear(in_features=768, out_features=768, bias=True)
(L__self___module_model_bert_encoder_layer_6_attention_output_dropout): Dropout(p=0.1, inplace=False)
(L__self___module_model_bert_encoder_layer_6_attention_output_LayerNorm): LayerNorm((768,), eps=1e-12, elementwise_affine=True)
(L__self___module_model_bert_encoder_layer_6_intermediate_dense): Linear(in_features=768, out_features=3072, bias=True)
(L__self___module_model_bert_encoder_layer_6_output_dense): Linear(in_features=3072, out_features=768, bias=True)
(L__self___module_model_bert_encoder_layer_6_output_dropout): Dropout(p=0.1, inplace=False)
(L__self___module_model_bert_encoder_layer_6_output_LayerNorm): LayerNorm((768,), eps=1e-12, elementwise_affine=True)
(L__self___module_model_bert_encoder_layer_7_attention_self_query): Linear(in_features=768, out_features=768, bias=True)
(L__self___module_model_bert_encoder_layer_7_attention_self_key): Linear(in_features=768, out_features=768, bias=True)
(L__self___module_model_bert_encoder_layer_7_attention_self_value): Linear(in_features=768, out_features=768, bias=True)
(L__self___module_model_bert_encoder_layer_7_attention_self_dropout): Dropout(p=0.1, inplace=False)
(L__self___module_model_bert_encoder_layer_7_attention_output_dense): Linear(in_features=768, out_features=768, bias=True)
(L__self___module_model_bert_encoder_layer_7_attention_output_dropout): Dropout(p=0.1, inplace=False)
(L__self___module_model_bert_encoder_layer_7_attention_output_LayerNorm): LayerNorm((768,), eps=1e-12, elementwise_affine=True)
(L__self___module_model_bert_encoder_layer_7_intermediate_dense): Linear(in_features=768, out_features=3072, bias=True)
(L__self___module_model_bert_encoder_layer_7_output_dense): Linear(in_features=3072, out_features=768, bias=True)
(L__self___module_model_bert_encoder_layer_7_output_dropout): Dropout(p=0.1, inplace=False)
(L__self___module_model_bert_encoder_layer_7_output_LayerNorm): LayerNorm((768,), eps=1e-12, elementwise_affine=True)
(L__self___module_model_bert_encoder_layer_8_attention_self_query): Linear(in_features=768, out_features=768, bias=True)
(L__self___module_model_bert_encoder_layer_8_attention_self_key): Linear(in_features=768, out_features=768, bias=True)
(L__self___module_model_bert_encoder_layer_8_attention_self_value): Linear(in_features=768, out_features=768, bias=True)
(L__self___module_model_bert_encoder_layer_8_attention_self_dropout): Dropout(p=0.1, inplace=False)
(L__self___module_model_bert_encoder_layer_8_attention_output_dense): Linear(in_features=768, out_features=768, bias=True)
(L__self___module_model_bert_encoder_layer_8_attention_output_dropout): Dropout(p=0.1, inplace=False)
(L__self___module_model_bert_encoder_layer_8_attention_output_LayerNorm): LayerNorm((768,), eps=1e-12, elementwise_affine=True)
(L__self___module_model_bert_encoder_layer_8_intermediate_dense): Linear(in_features=768, out_features=3072, bias=True)
(L__self___module_model_bert_encoder_layer_8_output_dense): Linear(in_features=3072, out_features=768, bias=True)
(L__self___module_model_bert_encoder_layer_8_output_dropout): Dropout(p=0.1, inplace=False)
(L__self___module_model_bert_encoder_layer_8_output_LayerNorm): LayerNorm((768,), eps=1e-12, elementwise_affine=True)
(L__self___module_model_bert_encoder_layer_9_attention_self_query): Linear(in_features=768, out_features=768, bias=True)
(L__self___module_model_bert_encoder_layer_9_attention_self_key): Linear(in_features=768, out_features=768, bias=True)
(L__self___module_model_bert_encoder_layer_9_attention_self_value): Linear(in_features=768, out_features=768, bias=True)
(L__self___module_model_bert_encoder_layer_9_attention_self_dropout): Dropout(p=0.1, inplace=False)
(L__self___module_model_bert_encoder_layer_9_attention_output_dense): Linear(in_features=768, out_features=768, bias=True)
(L__self___module_model_bert_encoder_layer_9_attention_output_dropout): Dropout(p=0.1, inplace=False)
(L__self___module_model_bert_encoder_layer_9_attention_output_LayerNorm): LayerNorm((768,), eps=1e-12, elementwise_affine=True)
(L__self___module_model_bert_encoder_layer_9_intermediate_dense): Linear(in_features=768, out_features=3072, bias=True)
(L__self___module_model_bert_encoder_layer_9_output_dense): Linear(in_features=3072, out_features=768, bias=True)
(L__self___module_model_bert_encoder_layer_9_output_dropout): Dropout(p=0.1, inplace=False)
(L__self___module_model_bert_encoder_layer_9_output_LayerNorm): LayerNorm((768,), eps=1e-12, elementwise_affine=True)
(L__self___module_model_bert_encoder_layer_10_attention_self_query): Linear(in_features=768, out_features=768, bias=True)
(L__self___module_model_bert_encoder_layer_10_attention_self_key): Linear(in_features=768, out_features=768, bias=True)
(L__self___module_model_bert_encoder_layer_10_attention_self_value): Linear(in_features=768, out_features=768, bias=True)
(L__self___module_model_bert_encoder_layer_10_attention_self_dropout): Dropout(p=0.1, inplace=False)
(L__self___module_model_bert_encoder_layer_10_attention_output_dense): Linear(in_features=768, out_features=768, bias=True)
(L__self___module_model_bert_encoder_layer_10_attention_output_dropout): Dropout(p=0.1, inplace=False)
(L__self___module_model_bert_encoder_layer_10_attention_output_LayerNorm): LayerNorm((768,), eps=1e-12, elementwise_affine=True)
(L__self___module_model_bert_encoder_layer_10_intermediate_dense): Linear(in_features=768, out_features=3072, bias=True)
(L__self___module_model_bert_encoder_layer_10_output_dense): Linear(in_features=3072, out_features=768, bias=True)
(L__self___module_model_bert_encoder_layer_10_output_dropout): Dropout(p=0.1, inplace=False)
(L__self___module_model_bert_encoder_layer_10_output_LayerNorm): LayerNorm((768,), eps=1e-12, elementwise_affine=True)
(L__self___module_model_bert_encoder_layer_11_attention_self_query): Linear(in_features=768, out_features=768, bias=True)
(L__self___module_model_bert_encoder_layer_11_attention_self_key): Linear(in_features=768, out_features=768, bias=True)
(L__self___module_model_bert_encoder_layer_11_attention_self_value): Linear(in_features=768, out_features=768, bias=True)
(L__self___module_model_bert_encoder_layer_11_attention_self_dropout): Dropout(p=0.1, inplace=False)
(L__self___module_model_bert_encoder_layer_11_attention_output_dense): Linear(in_features=768, out_features=768, bias=True)
(L__self___module_model_bert_encoder_layer_11_attention_output_dropout): Dropout(p=0.1, inplace=False)
(L__self___module_model_bert_encoder_layer_11_attention_output_LayerNorm): LayerNorm((768,), eps=1e-12, elementwise_affine=True)
(L__self___module_model_bert_encoder_layer_11_intermediate_dense): Linear(in_features=768, out_features=3072, bias=True)
(L__self___module_model_bert_encoder_layer_11_output_dense): Linear(in_features=3072, out_features=768, bias=True)
(L__self___module_model_bert_encoder_layer_11_output_dropout): Dropout(p=0.1, inplace=False)
(L__self___module_model_bert_encoder_layer_11_output_LayerNorm): LayerNorm((768,), eps=1e-12, elementwise_affine=True)
(L__self___module_model_bert_pooler_dense): Linear(in_features=768, out_features=768, bias=True)
(L__self___module_model_bert_pooler_activation): Tanh()
(L__self___module_model_dropout): Dropout(p=0.1, inplace=False)
(L__self___module_model_classifier): Linear(in_features=768, out_features=5, bias=True)